…
2019-12-03 18:44:27.249166: I tensorflow/core/common_runtime/gpu/gpu_device.cc:1178] 0:   N
2019-12-03 18:44:27.253730: I tensorflow/core/common_runtime/gpu/gpu_device.cc:1304] Created TensorFlow device (/job:localhost/replica:0/task:0/device:GPU:0 with 6354 MB memory) -> physical GPU (device: 0, name: GeForce GTX 1080, pci bus id: 0000:01:00.0, compute capability: 6.1)
Model: "sequential"
_________________________________________________________________
Layer (type)                 Output Shape              Param #
=================================================================
conv2d (Conv2D)              (None, 254, 254, 128)     3584
_________________________________________________________________
max_pooling2d (MaxPooling2D) (None, 127, 127, 128)     0
_________________________________________________________________
conv2d_1 (Conv2D)            (None, 125, 125, 128)     147584
_________________________________________________________________
max_pooling2d_1 (MaxPooling2 (None, 62, 62, 128)       0
_________________________________________________________________
conv2d_2 (Conv2D)            (None, 60, 60, 64)        73792
_________________________________________________________________
max_pooling2d_2 (MaxPooling2 (None, 30, 30, 64)        0
_________________________________________________________________
conv2d_3 (Conv2D)            (None, 28, 28, 64)        36928
_________________________________________________________________
max_pooling2d_3 (MaxPooling2 (None, 14, 14, 64)        0
_________________________________________________________________
conv2d_4 (Conv2D)            (None, 12, 12, 64)        36928
_________________________________________________________________
flatten (Flatten)            (None, 9216)              0
_________________________________________________________________
dense (Dense)                (None, 64)                589888
_________________________________________________________________
dense_1 (Dense)              (None, 2)                 130
=================================================================
Total params: 888,834
Trainable params: 888,834
Non-trainable params: 0
_________________________________________________________________
Train on 912 samples, validate on 228 samples
Epoch 1/100
2019-12-03 18:44:28.606167: I tensorflow/stream_executor/platform/default/dso_loader.cc:44] Successfully opened dynamic library cublas64_100.dll
…
